cake_model.tflite (tflite, 109388 bytes, 8 tensors)

model/re_lu/Relu;model/batch_normalization/batchnorm/add_1;model/conv1d/Conv1D/Squeeze;model/batch_normalization/batchnorm/mul_1;model/conv1d/BiasAdd;model/conv1d/BiasAdd/ReadVariableOp;model/batch_normalization/batchnorm/mul;model/batch_normalization/batchnorm/sub;model/conv1d/Conv1D;model/conv1d_2/Conv1D f4 [64]
-0.10216223 -0.08856705 -0.07506108 -0.119367026 -0.062989525 0.048175994 -0.1404339 -0.12574041
-0.09291926 -0.046798535 0.0759023 -0.17134866 0.016784586 -0.030314263 0.029510861 -0.15624325
-0.024564255 -0.10344474 -0.19305772 -0.07635348 0.028287787 0.049474172 -0.035920125 -0.0200309
0.063726865 -0.065509416 -0.15169176 -0.04340536 0.28125966 0.1275065 -0.18895811 -0.024052948
-0.102579534 -0.07117895 -0.14567158 0.121364504 0.1909833 -0.15373555 0.033154905 0.07419008
-0.19940303 0.113961145 -0.021205049 -0.024791108 -0.02457365 0.029947404 -0.16199005 0.013298295
0.014882243 -0.22555137 -0.08783629 -0.2612931 -0.13001838 -0.10116895 0.042729698 -0.026443154
-0.050996628 -0.2606926 -0.053556792 0.0090406835 -0.071440205 0.04369792 -0.0569247 0.02707192
00000000: 6e3a d1bd a462 b5bd a0b9 99bd b376 f4bd
00000010: a700 81bd 3154 453d e7cd 0fbe 18c2 00be
00000020: 744c bebd d2af 3fbd aa72 9b3d 0676 2fbe
00000030: d47f 893c 9e55 f8bc c3c0 f13c 3bfe 1fbe
00000040: fa3a c9bc d6da d3bd ecb0 45be 375f 9cbd
00000050: cabb e73c 6ea5 4a3d fb20 13bd d817 a4bc
00000060: 3b83 823d cd29 86bd 1655 1bbe d2c9 31bd
00000070: 4401 903e 1091 023e 3c7e 41be b00a c5bc
00000080: 3815 d2bd 45c6 91bd ee2a 15be f48d f83d
00000090: 2091 433e da6c 1dbe 70cd 073d f8f0 973d
000000a0: 4f30 4cbe 7664 e93d 36b6 adbc b916 cbbc
000000b0: ae4e c9bc 4254 f53c b8e0 25be 18e1 593c
000000c0: a7d4 733c f0f6 66be 83e3 b3bd 36c8 85be
000000d0: 8a23 05be ab31 cfbd 5605 2f3d 509f d8bc
000000e0: d7e1 50bd 8079 85be 5e5e 5bbd 601f 143c
000000f0: 3e4f 92bd 97fc 323d e029 69bd eec5 dd3c

model/re_lu_1/Relu;model/batch_normalization_1/batchnorm/add_1;model/conv1d_1/Conv1D/Squeeze;model/batch_normalization_1/batchnorm/mul_1;model/conv1d_1/BiasAdd;model/conv1d_1/BiasAdd/ReadVariableOp;model/batch_normalization_1/batchnorm/mul;model/batch_normalization_1/batchnorm/sub;model/conv1d_1/Conv1D;model/conv1d_2/Conv1D f4 [64]
1.0325308 0.040955536 -0.95294017 0.1063707 0.5637652 0.88263345 0.7339246 0.39359546
-0.030301897 -0.4868468 0.3223604 -0.524619 0.3925006 -0.34216243 -0.6730134 0.94686246
-0.16955896 1.0673118 0.20391263 0.61334777 1.1972086 -0.8869535 -0.8520749 0.5699109
-0.15778463 -0.016313592 -0.16629502 1.1557112 1.017787 -0.067100875 0.45143014 0.23439401
0.5438714 0.9509821 0.42046434 1.0437783 0.08962126 -0.63252527 0.3888194 1.392268
-1.6098136 1.0254631 0.084293306 0.6752551 0.28502488 0.6908293 0.9154445 0.5614177
0.7863036 0.35115537 0.84903014 0.68006223 0.5821973 0.84864205 -0.3922363 0.4486714
0.8725849 0.8289701 0.18727784 -0.76082796 0.22578481 0.21962112 -0.18396273 -0.36236945
00000000: f829 843f fec0 273d e3f3 73bf e2d8 d93d
00000010: eb52 103f 44f4 613f 7ce2 3b3f 5885 c93e
00000020: af3b f8bc fc43 f9be 6c0c a53e 6e4d 06bf
00000030: d7f5 c83e ea2f afbe 9b4a 2cbf 9465 723f
00000040: dda0 2dbe ac9d 883f 79ce 503e 5c04 1d3f
00000050: 223e 993f 620f 63bf 9521 5abf aee5 113f
00000060: 4b92 21be 15a4 85bc 3e49 2abe 58ee 933f
00000070: d846 823f 2f6c 89bd da21 e73e fc04 703e
00000080: 283b 0b3f 9073 733f 1a47 d73e 879a 853f
00000090: 5a8b b73d 2ded 21bf 5613 c73e d635 b23f
000000a0: 5f0e cebf 6042 833f f8a1 ac3d 85dd 2c3f
000000b0: c8ee 913e 30da 303f 925a 6a3f 12b9 0f3f
000000c0: 314b 493f a3ca b33e 0a5a 593f 8f18 2e3f
000000d0: e20a 153f 9b40 593f 32d3 c8be 42b8 e53e
000000e0: b961 5f3f 6237 543f c3c5 3f3e 9fc5 42bf
000000f0: 2234 673e 5ce4 603e ba60 3cbe 7d88 b9be

model/re_lu_2/Relu;model/batch_normalization_2/batchnorm/add_1;model/conv1d_2/Conv1D/Squeeze;model/batch_normalization_2/batchnorm/mul_1;model/conv1d_2/BiasAdd;model/conv1d_2/BiasAdd/ReadVariableOp;model/batch_normalization_2/batchnorm/mul;model/batch_normalization_2/batchnorm/sub;model/conv1d_2/Conv1D f4 [64]
1.2148621 1.2950389 2.0435123 0.8530121 0.8263643 0.30211762 0.5958383 1.2687871
0.6647034 0.23914854 0.6835367 0.6823164 -1.653718 -0.71420807 2.234789 0.2851389
1.2527673 1.9376147 0.28037062 0.68271136 1.1985496 -2.4640148 1.9038905 -0.3086784
2.532832 -0.10771742 -0.51233464 0.20701219 2.1429603 1.013528 0.73651177 -0.8057029
-0.3867933 2.168593 2.4931786 -0.8331963 -0.5624026 0.043073766 -0.14206012 1.8358606
1.3016053 1.3285478 0.2047635 0.44746658 2.9220903 2.2207568 0.76902246 1.403529
0.62401485 1.4640522 2.7969396 0.20756926 1.158054 0.6263317 1.2102433 -4.3865294
0.46839368 -0.69362545 0.9723523 -2.044373 0.47806984 4.8119044 0.9726741 0.6039179
00000000: 9a80 9b3f d6c3 a53f e8c8 0240 005f 5a3f
00000010: 9c8c 533f 29af 9a3e dc88 183f 9e67 a23f
00000020: 012a 2a3f 5be3 743e 43fc 2e3f 4aac 2e3f
00000030: 08ad d3bf 57d6 36bf c806 0f40 bafd 913e
00000040: ae5a a03f c203 f83f bd8c 8f3e 2cc6 2e3f
00000050: 136a 993f 6bb2 1dc0 afb2 f33f 180b 9ebe
00000060: eb19 2240 f39a dcbd 5d28 03bf 01fb 533e
00000070: 4326 0940 49bb 813f 098c 3c3f 8c42 4ebf
00000080: c509 c6be 3aca 0a40 3d90 1f40 5a4c 55bf
00000090: 9ef9 0fbf 1e6e 303d 3578 11be 7bfd ea3f
000000a0: 019b a63f db0d aa3f 86ad 513e 571a e53e
000000b0: 8703 3b40 e120 0e40 a8de 443f d7a6 b33f
000000c0: 70bf 1f3f 1066 bb3f 0f01 3340 098d 543e
000000d0: 1d3b 943f 4657 203f 41e9 9a3f 735e 8cc0
000000e0: 4cd1 ef3e 7091 31bf 15ec 783f 02d7 02c0
000000f0: 92c5 f43e 1ffb 9940 2b01 793f 5d9a 1a3f

model/batch_normalization/batchnorm/mul_1;model/conv1d/Conv1D/Squeeze;model/conv1d/BiasAdd;model/conv1d/BiasAdd/ReadVariableOp;model/batch_normalization/batchnorm/mul;model/conv1d/Conv1D;model/conv1d_2/Conv1D f4 [64, 1, 3, 1]
-0.23216935 0.64181596 0.49329513 0.21614783 -0.020798473 -1.05752 0.024808284 -0.43133792
-0.5635439 -0.46203303 0.20642342 0.9734382 -1.0669435 0.045386676 0.12941688 1.4325933
-0.504423 -0.2956329 -1.0788096 -0.3300541 0.6996775 0.34201652 0.16496772 0.5151805
1.5197257 -1.1455021 0.062047992 -0.9931215 -0.012727001 0.17255151 1.3615824 0.09552527
-0.89460397 0.21499418 -1.2807736 0.5213456 -0.19236362 -0.30797765 -0.53686136 1.1870595
0.3248249 -0.9908181 -0.9634184 1.5485947 -0.32565427 -0.9508355 -0.4623133 0.7853427
0.27194214 0.42654425 -1.3326938 0.5795921 -0.10716113 0.5240738 -0.67669517 -0.9766433
1.7728963 -1.1834706 0.29965073 0.07192126 -0.99767905 -0.587826 1.332797 -1.5691792
-0.007997774 1.1217633 0.9227787 -0.7613293 -0.62942696 0.3437248 0.3787023 0.2560121
-0.6730092 1.8187784 -1.2377067 -0.93924695 0.9012683 -0.6145499 0.9219106 0.48074242
-0.7104084 1.3250859 0.60715926 -1.5897745 0.15504031 -1.4698666 1.2901971 1.5545487
-1.7095722 -0.1723186 -0.3124548 0.043103226 1.036435 -0.32392377 -0.08847056 1.2033769
0.8435149 -0.78166574 0.6914678 -1.6451132 0.5002905 0.8994477 -0.97478956 -0.04449919
0.12663908 -1.3999819 0.1814189 0.66113335 -1.3961749 0.22366995 0.80711395 -0.4580863
0.75106496 0.442833 -0.6583407 0.3147383 1.0885396 1.0575547 0.668488 -1.0132967
0.012367842 1.2561568 -1.2226942 -0.5492324 1.6973627 -1.1992205 0.6490978 -0.8299348
0.8644693 -0.44733652 -0.81386304 0.4046049 -1.1688516 1.1158557 0.4537683 0.3689671
-0.028219275 -1.1967478 1.5329055 0.3891862 -1.5635866 -0.9208374 1.1537113 -0.8458662
1.3735653 -0.6859921 -0.8977037 0.5622237 0.6181442 -0.33461708 0.49128315 -0.27442592
0.71982807 -0.047316864 -0.3691784 -0.59249675 0.640143 -0.50136185 0.7873445 -1.2446685
-0.19066554 1.5322337 0.3497507 1.0856053 -0.98519963 -1.1861501 0.19010936 0.4297783
0.7813522 -1.3628737 1.0094903 -0.27979967 -1.4198134 1.5065625 -1.1218764 1.2785563
0.1634583 0.9792125 -1.3924582 0.8138934 0.86440676 -0.801063 0.7615828 -1.1182717
0.33965644 1.1230817 1.207509 -0.65000206 -0.85380876 1.208077 0.21345024 -0.7252887
00000000: cdbd 6dbe 0d4e 243f 2e91 fc3e db55 5d3e
00000010: 8f61 aabc d15c 87bf be3a cb3c 53d8 dcbe
00000020: 6a44 10bf 988f ecbe a960 533e 3f33 793f
00000030: 9b91 88bf 61e7 393d dc85 043e 385f b73f
00000040: de21 01bf 325d 97be 6f16 8abf dafc a8be
00000050: 111e 333f ca1c af3e 4ced 283e dfe2 033f
00000060: 5f86 c23f d09f 92bf 0926 7e3d 363d 7ebf
00000070: e984 50bc 58b1 303e 5548 ae3f c1a2 c33d
00000080: c404 65bf 6f27 5c3e 64f0 a3bf e876 053f
00000090: f8fa 44be 3faf 9dbe bf6f 09bf 91f1 973f
000000a0: 734f a63e 41a6 7dbf 97a2 76bf 5a38 c63f
000000b0: 28bc a6be f569 73bf 54b4 ecbe 380c 493f
000000c0: 003c 8b3e 0264 da3e b695 aabf 2660 143f
000000d0: 4b77 dbbd b329 063f e53b 2dbf 4c05 7abf
000000e0: 44ee e23f f77b 97bf d26b 993e 744b 933d
000000f0: e567 7fbf c47b 16bf 1899 aa3f ddda c8bf
00000100: 1809 03bc f195 8f3f 3a3b 6c3f 7ae6 42bf
00000110: 2022 21bf b2fc af3e 45e5 c13e 0514 833e
00000120: 554a 2cbf bbcd e83f 2c6d 9ebf 7d72 70bf
00000130: 85b9 663f 2453 1dbf 5502 6c3f df23 f63e
00000140: 53dd 35bf 6a9c a93f ca6e 1b3f bb7d cbbf
00000150: e3c2 1e3e 9724 bcbf 2e25 a53f 74fb c63f
00000160: 43d3 dabf 4974 30be 13fa 9fbe 028d 303d
00000170: e7a9 843f 56d9 a5be 0e30 b5bd 4108 9a3f
00000180: 98f0 573f 3f1b 48bf 0904 313f 1293 d2bf
00000190: 0a13 003f 3442 663f cf8b 79bf c844 36bd
000001a0: adad 013e 9b32 b3bf e0c5 393e 0940 293f
000001b0: dcb5 b2bf bc09 653e 059f 4e3f 4a8a eabe
000001c0: cb45 403f 02bb e23e 0489 28bf 6125 a13e
000001d0: 4455 8b3f f45d 873f 0822 2b3f b5b3 81bf
000001e0: 7da2 4a3c bfc9 a03f 3e81 9cbf 7f9a 0cbf
000001f0: 2e43 d93f 0f80 99bf 462b 263f 9b76 54bf
00000200: dc4d 5d3f 4b09 e5be 5459 50bf 6028 cf3e
00000210: ee9c 95bf 5cd4 8e3f 5254 e83e 41e9 bc3e
00000220: 1c2c e7bc 082f 99bf 3f36 c43f 6a43 c73e
00000230: 9b23 c8bf 00bc 6bbf d0ac 933f b08a 58bf
00000240: fdd0 af3f 2e9d 2fbf e9cf 65bf e4ed 0f3f
00000250: b33e 1e3f ee52 abbe 7789 fb3e 8e81 8cbe
00000260: a746 383f 54cf 41bd f404 bdbe dead 17bf
00000270: 69e0 233f 4059 00bf 698f 493f 4c51 9fbf
00000280: d43d 43be 3c20 c43f 8612 b33e 1df5 8a3f
00000290: 0b36 7cbf c4d3 97bf 07ac 423e e70b dc3e
000002a0: b306 483f a572 aebf fa36 813f e741 8fbe
000002b0: 72bc b5bf 0ad7 c03f a599 8fbf bca7 a33f
000002c0: 9d61 273e acad 7a3f 123c b2bf 515b 503f
000002d0: c349 5d3f 7712 4dbf 17f7 423f 8723 8fbf
000002e0: 73e7 ad3e 24c1 8f3f a88f 9a3f 8966 26bf
000002f0: 3693 5abf 44a2 9a3f b392 5a3e 85ac 39bf

model/batch_normalization_1/batchnorm/mul_1;model/conv1d_1/Conv1D/Squeeze;model/conv1d_1/BiasAdd;model/conv1d_1/BiasAdd/ReadVariableOp;model/batch_normalization_1/batchnorm/mul;model/conv1d_1/Conv1D;model/conv1d_2/Conv1D f4 [64, 1, 3, 64]
-0.11614566 0.15831827 -0.078566045 -0.022720303 -0.048695233 -0.08039552 -0.33862737 -0.100809254
-0.006316748 -0.078698635 -0.16141973 -0.1755871 0.043861724 -0.23506695 0.14355728 -0.2891016
-0.008491675 0.04882961 0.22641145 -0.20049632 -0.0014002087 -0.3688292 -0.11567403 -0.105899885
0.04080899 -0.14955454 -0.124890186 0.1037722 -0.08696128 0.33087343 0.14942966 0.24759889
0.10558799 0.092563935 -0.06991525 -0.18640696 -0.17238562 -0.0017630311 0.03354494 -0.07914126
-0.20260863 0.06838333 -0.061193284 -0.22081968 0.10967816 -0.054481078 0.17044996 -0.012400103
0.0068675033 -0.19835709 0.13036928 -0.026057888 0.059996367 0.24888986 0.05107806 -0.005893797
0.16086265 0.007883167 0.047828715 0.19498481 -0.0035151911 0.06247004 -0.01062021 -0.2017765
-0.037258383 -0.0520758 -0.11932982 -0.18551104 -0.1501765 -0.010033027 0.039844044 -0.17810024
0.02295508 0.058328874 -0.06810992 0.088470876 0.14710823 -0.066961974 0.020797892 -0.024266275
-0.03191504 0.09144899 0.44730082 0.008487354 -0.14042741 -0.10598107 -0.038108435 -0.121233754
-0.18442324 -0.020853728 -0.055039667 0.07752151 0.02459147 0.14320618 0.07495539 -0.0068729497
-0.10512219 -0.09911883 0.086476795 -0.043372545 -0.16081293 -0.04842876 -0.0048492136 0.093024135
0.06130777 -0.2565748 -0.06912619 0.10213598 -0.22550474 -0.047595076 -0.09184067 -0.024661046
0.1386067 -0.19216582 0.0010389189 0.031820893 0.056479022 0.3560475 -0.068381466 -0.06198229
0.15458544 0.16370596 0.005380663 -0.005341553 -0.13123257 -0.18110794 0.028560942 0.039319392
-0.11370327 0.11958861 -0.08856268 0.1526632 0.0091652125 0.17455935 -0.07762834 0.12492767
-0.055829212 -0.018846676 -0.09591845 0.22959132 0.15146491 -0.014149723 -0.09780327 -0.09845177
0.05188104 -0.026336418 0.059200898 0.039969478 0.1684474 -0.042267643 -0.08857288 -0.103547506
-0.42549735 -0.0049089934 0.06625484 0.20075232 0.19757321 -0.4089084 -0.20865607 -0.04915167
0.1330757 -0.05673459 0.028795438 -0.19170414 -0.23196113 0.06809817 -0.010458622 -0.1608158
0.23886442 -0.27151102 0.014055998 -0.12003492 -0.16246589 -0.0039481977 0.22242294 -0.27134228
-0.1797648 -0.13466276 -0.11083554 0.03888701 -0.04969309 -0.12486582 0.024018815 0.13449135
0.11612053 0.10130852 -0.21564966 0.010094773 0.14176194 -0.027491434 -0.12370408 -0.12523021
0.051373363 0.072187476 -0.07748782 -0.0011756333 -0.11760829 -0.04197926 0.028595349 -0.010812678
-0.017352398 -0.04651467 -0.045750994 -0.0035532769 0.026732938 -0.20112209 -0.05838436 0.08441335
-0.12231961 0.05990893 -0.12163592 -0.022441033 -0.075050816 0.05897452 0.081088714 -0.12935467
0.032835502 0.054823294 -0.1375191 -0.1743954 0.12909587 -0.3026203 -0.06288859 -0.089384794
0.016696028 -0.05061212 -0.071276724 0.061605956 0.16692632 0.022026632 0.12047244 -0.126729
0.032457154 0.022468543 -0.06117241 0.011888341 -0.040347148 -0.07818088 -0.1780972 0.13057609
-0.24352036 -0.053618707 0.04735353 -0.09019812 -0.08344073 0.03129618 -0.059252683 0.050844926
-0.12757228 -0.022967773 0.07385262 -0.056621794 0.076262906 0.10628282 -0.23153293 -0.13821663
00000000: c7dd edbd 2f1e 223e 3ce7 a0bd ee1f babc
00000010: a774 47bd 68a6 a4bd 9160 adbe 1575 cebd
00000020: b9fc cebb c02c a1bd 374b 25be 1bcd 33be
00000030: 5aa8 333d 64b5 70be ae00 133e 2005 94be
00000040: ab20 0bbc 8f01 483d 67d8 673e e84e 4dbe
00000050: 3587 b7ba 2ed7 bcbe 81e6 ecbd 0ae2 d8bd
00000060: 5427 273d d324 19be 6dc6 ffbd 8586 d43d
00000070: c118 b2bd 3e68 a93e 1704 193e 908a 7d3e
00000080: 843e d83d 2992 bd3d ba2f 8fbd 77e1 3ebe
00000090: db85 30be 8215 e7ba 6b66 093d d014 a2bd
000000a0: a378 4fbe 8f0c 8c3d cfa5 7abd 8e1e 62be
000000b0: f19e e03d 8d27 5fbd 6f8a 2e3e cd29 4bbc
000000c0: cb08 e13b 1f1e 4bbe 867f 053e 5a77 d5bc
000000d0: c0be 753d fcdc 7e3e 3a37 513d c120 c1bb
000000e0: 2eb9 243e 6628 013c 0be8 433d 19aa 473e
000000f0: 1f5f 66bb 96e0 7f3d 6400 2ebc 809e 4ebe
00000100: 3f9c 18bd 6f4d 55bd 3163 f4bd 9bf6 3dbe
00000110: dec7 19be 9161 24bc 8233 233d e95f 36be
00000120: 4b0c bc3c 42ea 6e3d 377d 8bbd 3830 b53d
00000130: 8aa3 163e 5c23 89bd 5760 aa3c 11ca c6bc
00000140: 58b9 02bd 9c49 bb3d 9d04 e53e 8b0e 0b3c
00000150: 34cc 0fbe 9a0c d9bd 9717 1cbd 6749 f8bd
00000160: 72d9 3cbe 70d5 aabc 4671 61bd 99c3 9e3d
00000170: 0d74 c93c a4a4 123e 3682 993d 7b36 e1bb
00000180: 4e4a d7bd d0fe cabd bf1a b13d 69a7 31bd
00000190: 25ac 24be 3c5d 46bd 27e6 9ebb 7083 be3d
000001a0: db1d 7b3d c65d 83be 0892 8dbd ab2c d13d
000001b0: b7ea 66be 0ef3 42bd f616 bcbd f605 cabc
000001c0: eaee 0d3e 1ec7 44be 552c 883a a056 023d
000001d0: 8c56 673d dc4b b63e 950b 8cbd 24e1 7dbd
000001e0: a54b 1e3e 89a2 273e 4650 b03b 3208 afbb
000001f0: d561 06be 5c74 39be a3f8 e93c 5f0d 213d
00000200: 43dd e8bd e0ea f43d 5a60 b5bd be53 1c3e
00000210: b029 163c b0bf 323e 9bfb 9ebd 14da ff3d
00000220: 2cad 64bd 5864 9abc e470 c4bd fd19 6b3e
00000230: 9e19 1b3e 3dd4 67bc 154d c8bd 15a1 c9bd
00000240: 3781 543d 79bf d7bc a47c 723d 09b7 233d
00000250: 7a7d 2c3e d620 2dbd b365 b5bd b710 d4bd
00000260: cada d9be 9fdb a0bb 9eb0 873d 0492 4d3e
00000270: a250 4a3e 715c d1be f0a9 55be 4353 49bd
00000280: ff44 083e 8862 68bd 69e4 eb3c 174e 44be
00000290: 3887 6dbe 0e77 8b3d a45a 2bbc e6ac 24be
000002a0: e098 743e 7e03 8bbe 214b 663c ded4 f5bd
000002b0: 755d 26be e25f 81bb d7c2 633e 60ed 8abe
000002c0: 4414 38be 09e5 09be befd e2bd fc47 1f3d
000002d0: fb8a 4bbd a7b9 ffbd 1bc3 c43c 1ab8 093e
000002e0: 9ad0 ed3d d77a cf3d 44d3 5cbe 8c64 253c
000002f0: 0b2a 113e b735 e1bc 9158 fdbd 593c 00be
00000300: e06c 523d 07d7 933d efb1 9ebd b517 9aba
00000310: 9ddc f0bd 72f2 2bbd cb40 ea3c a927 31bc
00000320: 9e26 8ebc 2b86 3ebd 6565 3bbd 18de 68bb
00000330: 09ff da3c f3f2 4dbe 7024 6fbd e8e0 ac3d
00000340: b482 fabd 1163 753d 411c f9bd 42d6 b7bc
00000350: 3eb4 99bd 448f 713d d711 a63d 8d75 04be
00000360: 857e 063d 648e 603d cfd1 0cbe b594 32be
00000370: b531 043e 0cf1 9abe bccb 80bd 600f b7bd
00000380: 1cc6 883c a84e 4fbd 88f9 91bd 8756 7c3d
00000390: bcee 2a3e 3271 b43c 41ba f63d 3fc5 01be
000003a0: cbf1 043d f30f b83c ec8f 7abd 51c7 423c
000003b0: 0d43 25bd 4c1d a0bd 1d5f 36be bdb5 053e
000003c0: 675d 79be 4a9f 5bbd c6f5 413d cbb9 b8bd
000003d0: f9e2 aabd 6c30 003d f1b2 72bd c542 503d
000003e0: 4fa2 02be e926 bcbc 0b40 973d 41ec 67bd
000003f0: ba2f 9c3d cfaa d93d f816 6dbe a988 0dbe

model/batch_normalization_2/batchnorm/mul_1;model/conv1d_2/Conv1D/Squeeze;model/conv1d_2/BiasAdd;model/conv1d_2/BiasAdd/ReadVariableOp;model/batch_normalization_2/batchnorm/mul;model/conv1d_2/Conv1D f4 [64, 1, 3, 64]
0.39848098 -0.4980215 0.14177082 0.2816975 -0.34548298 1.0597007 -0.36600527 -0.4337824
0.26168013 -0.5473381 0.53121847 -0.37908635 0.025431266 0.8896449 -0.4694367 -0.1478955
0.59539443 -0.41335312 0.5091049 0.021077804 -1.0270002 0.28710622 0.22100341 -0.72350365
-0.30550912 0.620291 1.0688308 -0.38625875 -0.37776694 -0.2699957 0.0671306 -0.6507121
-0.4815294 0.3484585 0.68164706 -0.5327325 0.18345256 -0.6731608 -0.92662627 -0.54714745
-0.65271807 0.79218096 0.071807265 -0.09866776 0.82297915 0.15964279 0.80216116 -0.19975837
0.819447 0.39588538 -0.07800568 -0.57047766 0.3473205 -0.18593746 -0.5158772 0.22325973
-0.22834623 -0.20328309 0.64029557 0.14071019 -0.21230793 0.029965647 -0.64971817 -0.32265553
0.69512635 -0.56412065 0.36982042 0.351042 -0.707306 0.44768596 -0.36072624 -0.8401358
-0.11293042 0.17393118 0.042705886 -0.42843294 -0.12859298 -0.08232166 -0.14590026 0.10635807
0.5513971 -0.6647211 -0.07858937 -0.17092356 -0.39502537 0.5435596 0.021082863 -0.42306817
0.1290526 -0.23219776 1.2800512 0.036600564 -0.018370498 -0.50415057 0.109354645 -0.6017706
-0.3006071 -0.49675396 0.041459095 -0.044241257 0.04413738 -0.3186417 -0.009510737 -0.45449916
-0.6993363 0.30510747 0.036962476 -0.5200578 0.4199559 0.5307834 0.4706561 -0.106815845
0.8446331 0.5702075 0.291791 -0.02718569 0.112588674 0.061228976 0.13780156 -0.4353462
0.20568784 0.40470615 0.0707109 0.48588258 0.0052478663 -0.12770247 -0.19354825 -0.669425
-0.015398646 -0.392666 0.46009478 0.018458938 -0.42675728 0.7785694 -0.15784332 -0.60862297
-0.44950935 0.19113295 0.041069 -0.09340153 -0.6006998 0.37947333 -0.79752177 -0.21916357
-0.4033314 -0.608323 -0.28871474 -0.071363404 -0.09985813 0.5114721 0.26435167 0.25635216
0.24260873 0.7404629 1.2720429 0.37421483 -0.2879064 -0.22998606 0.2229174 0.059922494
-0.19109923 0.30540857 0.23929411 -0.072728746 0.30624887 0.3012669 -0.83901995 -0.5831832
-0.023438487 -0.45818764 -0.6102849 -0.07051422 0.15319055 0.1610607 0.08903595 0.05247953
0.6383698 0.8394938 0.83235204 -0.6192732 0.16181904 -0.4414482 -0.036895845 -0.20383795
-0.02448648 0.2995829 -0.31272653 0.15983975 -0.5265595 -0.103199035 -0.0750563 -0.883397
-0.67001915 0.226614 -0.070889555 0.4106909 -0.5695823 -0.0691643 0.03357217 -0.7624862
-0.41986498 0.11276396 0.4130707 -0.5471827 -0.36921227 -0.05247309 -0.22795112 0.03628615
-0.030534633 -0.6678453 0.9115568 0.30857742 0.19091853 0.02081784 0.16348295 0.035982486
-0.33066443 0.48856333 0.8163768 -0.15120678 -0.15390922 -0.063305765 -0.15537941 0.6515198
0.32584825 -0.06191588 -0.64891875 -0.28211275 0.17912522 -0.24580626 -0.3005583 -0.661187
-0.5881055 0.3463296 0.46655625 -0.70243984 -0.2089853 -0.3474466 0.02741561 -0.15015061
0.3462408 0.29269052 0.010912374 -0.7957036 0.107017845 0.6184395 -0.4207721 -0.5025347
-1.0430051 -0.285678 -0.61665684 0.34444752 0.34285262 0.0042043077 0.41353902 -0.058078103
00000000: b305 cc3e adfc febe 5f2c 113e a83a 903e
00000010: 25e3 b0be 46a4 873f 0b65 bbbe ba18 debe
00000020: f0fa 853e 5a1e 0cbf effd 073f 9b17 c2be
00000030: 3b55 d03c c5bf 633f 025a f0be eb71 17be
00000040: c56b 183f 05a3 d3be b354 023f 5cab ac3c
00000050: be74 83bf 96ff 923e b84e 623e 8937 39bf
00000060: b16b 9cbe 64cb 1e3f 73cf 883f b5c3 c5be
00000070: ab6a c1be e03c 8abe c57b 893d 1195 26bf
00000080: 068b f6be 2769 b23e 6c80 2e3f 2861 08bf
00000090: fdda 3b3e 4454 2cbf 6137 6dbf db11 0cbf
000000a0: 8818 27bf 5fcc 4a3f b00f 933d 5312 cabd
000000b0: c3ae 523f 6679 233e 6f5a 4d3f 758d 4cbe
000000c0: 47c7 513f 7db1 ca3e 71c1 9fbd d30a 12bf
000000d0: fed3 b13e 6466 3ebe 8710 04bf 339e 643e
000000e0: 98d3 69be 7129 50be 69ea 233f 5516 103e
000000f0: 4067 59be 847a f53c ee53 26bf 1b33 a5be
00000100: cdf3 313f 366a 10bf 1a59 bd3e c7bb b33e
00000110: 0212 35bf 1837 e53e 1cb1 b8be 2413 57bf
00000120: 1048 e7bd 041b 323e 5eec 2e3d 905b dbbe
00000130: e1ad 03be 4298 a8bd e166 15be 43d2 d93d
00000140: 5c28 0d3f 292b 2abf 77f3 a0bd 9606 2fbe
00000150: c440 cabe b926 0b3f f8b5 ac3c 649c d8be
00000160: 5d26 043e 40c5 6dbe b8d8 a33f 79ea 153d
00000170: ba7d 96bc 0310 01bf 54f5 df3d a30d 1abf
00000180: 2ce9 99be 8956 febe 03d1 293d 5236 35bd
00000190: 66c9 343d 0125 a3be ecd2 1bbc 1db4 e8be
000001a0: b407 33bf 0c37 9c3e f765 173d 8222 05bf
000001b0: 7604 d73e 6ce1 073f d6f9 f03e 44c2 dabd
000001c0: e039 583f 1ef9 113f a165 953e 86b4 debc
000001d0: e494 e63d 3ccb 7a3d da1b 0d3e b2e5 debe
000001e0: d59f 523e a535 cf3e e0d0 903d 9ac5 f83e
000001f0: 4bf6 ab3b 70c4 02be 8331 46be 705f 2bbf
00000200: 9a4a 7cbc 850b c9be 8b91 eb3e 3337 973c
00000210: ee7f dabe 5350 473f aea1 21be b7ce 1bbf
00000220: 1726 e6be 5bb8 433e f837 283d 4d49 bfbd
00000230: 76c7 19bf 544a c23e 632a 4cbf 6a6c 60be
00000240: 7481 cebe 0ebb 1bbf 6bd2 93be fa26 92bd
00000250: 6b82 ccbd d6ef 023f 1a59 873e 9740 833e
00000260: 6c6e 783e fa8e 3d3f 4dd2 a23f 1699 bf3e
00000270: 7868 93be 7781 6bbe 7544 643e 4a71 753d
00000280: 84af 43be 835e 9c3e 8409 753e cff2 94bd
00000290: a7cc 9c3e a83f 9a3e 03ca 56bf 7f4b 15bf
000002a0: 1202 c0bc 9297 eabe a23b 1cbf c269 90bd
000002b0: fcdd 1c3e 19ed 243e 7b58 b63d c7f4 563d
000002c0: 346c 233f 11e9 563f 0615 553f b088 1ebf
000002d0: e4b3 253e 8005 e2be 1920 17bd e5ba 50be
000002e0: df97 c8bc ee62 993e b11d a0be 08ad 233e
000002f0: 9acc 06bf 045a d3bd 1eb7 99bd 4e26 62bf
00000300: 6086 2bbf 800d 683e 8b2e 91bd 1446 d23e
00000310: 25d0 11bf 03a6 8dbd f982 093d 4c32 43bf
00000320: 8bf8 d6be cbf0 e63d 017e d33e 2a14 0cbf
00000330: 6409 bdbe 06ee 56bd 056c 69be c9a0 143d
00000340: c423 fabc e9f7 2abf c95b 693f dcfd 9d3e
00000350: 2680 433e 2d8a aa3c 1368 273e 5f62 133d
00000360: d94c a9be f924 fa3e 12fe 503f f3d5 1abe
00000370: 619a 1dbe 74a6 81bd c81b 1fbe 00ca 263f
00000380: 95d5 a63e 819b 7dbd 8a1f 26bf 1571 90be
00000390: 9a6c 373e a3b4 7bbe c7e2 99be 8d43 29bf
000003a0: 158e 16bf 1d52 b13e 76e0 ee3e 19d3 33bf
000003b0: 3e00 56be 85e4 b1be b496 e03c 15c1 19be
000003c0: 7946 b13e 88db 953e d0c9 323c 3bb3 4bbf
000003d0: 2c2c db3d 0d52 1e3f 716f d7be 1da6 00bf
000003e0: 3181 85bf 6344 92be 39dd 1dbf 6d5b b03e
000003f0: 618a af3e 4ac4 893b 63bb d33e 4ee3 6dbd

model/dense/BiasAdd/ReadVariableOp f4 [10]
-0.11923247 -0.046205495 -0.026719734 0.04812616 0.09848092 0.015995251 0.07172102 0.0064619756
-0.06981808 -0.04349594
00000000: 2730 f4bd f941 3dbd 58e3 dabc f01f 453d
00000010: 5db0 c93d 7908 833c 78e2 923d fbbe d33b
00000020: c8fc 8ebd cc28 32bd

model/dense/MatMul f4 [10, 64]
-0.2081035 -0.34952718 0.54276043 0.07146009 0.3716036 0.2908404 0.42651454 0.13396792
0.21626839 0.2355911 -0.5229487 0.1601994 -0.67919093 0.2971747 0.53706384 -0.37594527
-0.40891087 -0.58340955 -0.056484047 -0.31222755 -0.27083743 -0.16274458 -0.4863841 0.15495533
-0.41534835 0.22003351 -0.2600889 -0.32957584 0.15265544 -0.23752286 0.12336204 0.39913964
0.2546553 0.2693182 0.026303573 -0.4635349 -0.3528779 -0.10950284 0.30214977 0.27077326
0.07862548 -0.50632817 -0.54176617 -0.18493095 0.00643276 -0.4531517 0.08010551 -0.4297386
-0.64268 -0.04908874 -0.68863636 0.19260688 -0.7530026 0.3553252 -0.23973344 0.4473263
-0.057731133 -0.2152004 0.48585552 0.24687614 -0.5080262 0.042532228 -0.17832673 0.396992
-0.08938062 -0.54123473 0.4880195 0.13821842 -0.21510167 0.56769395 0.24915174 0.2731718
-0.70294315 0.27472892 -0.6550949 0.39563385 -0.1355026 -0.11184256 0.21753405 -0.17625324
-0.41965395 0.44590575 -0.37631407 0.35885397 0.28920025 0.081351824 0.200974 -0.03661902
0.3037317 -0.096979514 0.34257147 -0.1209295 0.42610818 -0.48223042 0.3339183 0.024706492
-0.36699894 0.4498616 -0.6228392 -0.34706318 -0.62772274 0.6174874 -0.17221555 -0.6973955
-0.7355518 0.31496513 0.45838556 0.28405744 -0.3105857 -0.7668642 -0.6669515 -0.3636032
0.13594723 -0.73177475 0.014108323 0.4862185 0.12773603 -0.638331 0.06612362 -0.037959386
0.1848952 -0.19929293 -0.30386594 -0.042783372 0.06448634 -0.086455345 -0.44943455 0.2710808
-0.47630528 -0.22491415 0.0077300584 0.33800718 0.39365807 -0.043296926 -0.054192405 0.13974462
-0.68037355 0.38401452 -0.5787166 0.014805667 0.2279919 0.53078645 -0.14860892 0.48490444
-0.6766689 0.3186975 0.08957987 -0.56579226 0.29938668 0.028650671 -0.6915426 -0.5709433
-0.460903 -0.48996347 0.0023890226 -0.14545831 0.0335865 0.34912026 0.31130362 0.4069002
0.015600587 0.08115896 -0.38625753 0.39818686 0.33022726 -0.21285704 -0.5924401 -0.12673062
0.15864979 -0.3568486 -0.45470345 0.31370354 0.14376172 -0.08114308 -0.074412175 0.25916058
-0.20186718 -0.06477885 0.2111997 -0.29181108 -0.04994683 -0.2079467 -0.32601735 -0.41672775
0.124887004 0.39188457 -0.41618264 0.07871372 -0.5368787 0.16587065 -0.7760401 0.37585
-0.76704663 0.1844917 -0.5844955 0.0072945133 -0.43527293 -0.7639111 -0.73664045 -0.37649328
-0.06617348 0.010593228 0.18043265 0.3242134 0.44304425 0.067136906 -0.791257 0.1400409
-0.24155855 -0.32531056 0.4744856 -0.15047307 0.3492821 0.45986456 0.34562045 0.23034613
-0.39856985 0.3906698 0.2920043 0.075030476 -0.32861248 -0.37964693 -0.10358632 -0.39603692
0.48970407 -0.59945923 -0.46094918 0.2663191 -0.53582335 0.43738896 -0.05975264 -0.4842168
-0.4900753 -0.22363867 0.017264908 -0.32496727 -0.76093715 0.35637352 0.4203828 0.6852773
-0.0037004915 -0.3987765 0.1941851 0.1451422 0.5258587 -0.7658538 -0.099591814 0.4411222
-0.70118314 0.24191974 0.39675918 0.5415854 0.51782614 -1.134083 0.45242023 -0.06679754
00000000: 1519 55be 3af5 b2be 59f2 0a3f ab59 923d
00000010: d442 be3e 08e9 943e 1d60 da3e e32e 093e
00000020: 7675 5d3e cb3e 713e f7df 05bf 500b 243e
00000030: 75df 2dbf 4827 983e 047d 093f e67b c0be
00000040: c45c d1be 545a 15bf d15b 67bd 4adc 9fbe
00000050: 34ab 8abe 84a6 26be 5607 f9be 9cac 1e3e
00000060: 8aa8 d4be 7750 613e 5f2a 85be 2abe a8be
00000070: b551 1c3e 3139 73be 3da5 fc3d 085c cc3e
00000080: 2e62 823e 13e4 893e 977a d73c 7254 edbe
00000090: 69ac b4be 0643 e0bd 60b3 9a3e cba2 8a3e
000000a0: 6506 a13d b99e 01bf 30b1 0abf 8a5e 3dbe
000000b0: e7c9 d23b 8003 e8be 5c0e a43d b306 dcbe
000000c0: ad86 24bf 4611 49bd 794a 30bf bd3a 453e
000000d0: c7c4 40bf 2fed b53e af7c 75be f407 e53e
000000e0: 7b77 6cbd 7e5d 5cbe 0ec2 f83e 19cd 7c3e
000000f0: 010e 02bf 4636 2e3d 489b 36be 8942 cb3e
00000100: 300d b7bd 5c8e 0abf b1dd f93e 2189 0d3e
00000110: 9d43 5cbe 6454 113f a221 7f3e 2ddd 8b3e
00000120: 15f4 33bf 45a9 8c3e 4db4 27bf 8590 ca3e
00000130: 32c1 0abe b60d e5bd 3fc1 5e3e bb7b 34be
00000140: e2dc d6be c24d e43e 3dac c0be b5bb b73e
00000150: 0e12 943e c99b a63d 21cc 4d3e d3fd 15bd
00000160: b982 9b3e 329d c6bd 8765 af3e e3a9 f7bd
00000170: da2a da3e e8e6 f6be 57f7 aa3e 4565 ca3c
00000180: 49e7 bbbe 4254 e63e 6472 1fbf 44b2 b1be
00000190: 70b2 20bf a713 1e3f 4659 30be 8388 32bf
000001a0: 1f4d 3cbf 1c43 a13e 83b1 ea3e fa6f 913e
000001b0: 1705 9fbe 3651 44bf 55bd 2abf 332a babe
000001c0: c035 0b3e 9755 3bbf 9826 673c a2f1 f83e
000001d0: 3ccd 023e a969 23bf d26b 873d 4d7b 1bbd
000001e0: 2b55 3d3e 7213 4cbe 5194 9bbe 9e3d 2fbd
000001f0: 6a11 843d 800f b1bd 491c e6be 1acb 8a3e
00000200: 49de f3be e54f 66be 6e4c fd3b 470f ad3e
00000210: 8d8d c93e 1e58 31bd dbf8 5dbd 3719 0f3e
00000220: f62c 2ebf 8d9d c43e c526 14bf 7893 723c
00000230: b576 693e 9fe1 073f f02c 18be 6545 f83e
00000240: 2c3a 2dbf 522c a33e a775 b73d c3d7 10bf
00000250: 3649 993e d0b4 ea3c f008 31bf 5729 12bf
00000260: 7afb ebbe 7edc fabe 2691 1c3b 06f3 14be
00000270: ff91 093d e4bf b23e 3063 9f3e 3955 d03e
00000280: 9b99 7f3c ab36 a63d 8cc3 c5be 26df cb3e
00000290: 8c13 a93e 32f7 59be 28aa 17bf acc5 01be
000002a0: 1775 223e dcb4 b6be e4ce e8be c09d a03e
000002b0: 4636 133e 582e a6bd 6965 98bd b2b0 843e
000002c0: 45b6 4ebe c6aa 84bd bc44 583e 4368 95be
000002d0: 0c95 4cbd fbef 54be bfeb a6be 575d d5be
000002e0: c2c4 ff3d 18a5 c83e e415 d5be a934 a13d
000002f0: e270 09bf ffd9 293e 90aa 46bf 696f c03e
00000300: 2b5d 44bf 64eb 3c3e 7fa1 15bf d006 ef3b
00000310: 18dc debe ae8f 43bf 7894 3cbf bac3 c0be
00000320: f685 87bd 388f 2d3c 56c3 383e 4cff a53e
00000330: b2d6 e23e 137f 893d d28f 4abf e266 0f3e
00000340: 205b 77be 1b8f a6be c7ef f23e 9d15 1abe
00000350: 1ad5 b23e 5e73 eb3e 2af5 b03e dbdf 6b3e
00000360: 5911 ccbe df05 c83e 9681 953e 94a9 993d
00000370: e53f a8be 1561 c2be 1125 d4bd 5ac5 cabe
00000380: 7eba fa3e 2976 19bf 8801 ecbe fa5a 883e
00000390: b82b 09bf 72f1 df3e 2fbf 74bd 44eb f7be
000003a0: 26eb fabe 8901 65be 236f 8d3c 1c62 a6be
000003b0: c7cc 42bf 9776 b63e 6a3c d73e 556e 2f3f
000003c0: f283 72bb 6f2c ccbe 75d8 463e 28a0 143e
000003d0: ad9e 063f ff0e 44bf cbf6 cbbd c5da e13e
000003e0: bd80 33bf cfb9 773e 0524 cb3e 57a5 0a3f
000003f0: 4190 043f a229 91bf a0a3 e73e 26cd 88bd
